data.pth (torch, 5418 bytes, 6 tensors)

l1.weight f4 [8, 54]
00000000: 676d d43e 6a91 07be fcaa b7be fd1c d53e
00000010: 8da2 a93e 4798 22bf ad60 25be fcbf edbe
00000020: e6cb 8bbe be34 23bf f609 043f e90e 033f
00000030: 4644 733e efe4 123f 61d9 68bb efcc ff3e
00000040: 3a95 293f fe8b 27bf 08af 693e 7ab5 1e3f
00000050: 7538 b43e d853 563f 0945 253f 8da4 3e3f
00000060: 8f06 cb3e e2ed 0e3f e564 debd 6759 b5be
00000070: 868c 94bd 39a7 cebe a147 c0be 815f 493f
00000080: ff71 b33e b831 7cbe 213b 9ebe 3425 0c3f
00000090: a471 d0bd 2ffa a2be ed3a c3bd 27f6 66be
000000a0: 7873 88be 3d1e 223e 13fe 153f 11f3 5bbe
000000b0: b960 0f3f 16cb efbd cb79 703f 1226 ae3e
000000c0: 1478 813e 776a 583d af96 163f 8b9b 183e
000000d0: 0515 3dbb fe5d 07bb 6f36 1f3b 53aa 0f3f
000000e0: 1ae6 2b3e 5903 973e f5cf 903e dfd5 603f
000000f0: 6e70 0fbc 3067 6f3e f386 d4be f9c0 983e
00000100: abf6 ec3e 05f4 c2be 999a 84be 3547 fbbe
00000110: 225e d23e a426 30be 8191 b03e 1160 413f
00000120: 8136 e4be af36 f03e 326e 77bd 484e d13e
00000130: 599f 9e3e fb6a b43e fd2b 653b 2f34 843e
00000140: 7ce4 b5be 2813 193f aa7c d5bd cf02 2a3f
00000150: 2602 2f3f e7f7 b0be f997 15bc 16b5 8e3d
00000160: 88e1 2e3f 39b7 a5bd 789d 99be 549c 83be
00000170: 6366 ae3c 8eee 283e 39a4 0b3f 56d5 b2be
00000180: 25ef c2be 6f3c fb3e 3e1b 4dbe e805 113f
00000190: 477e e7bd 51c0 b73d 9a37 c53c 40f6 0ebf
000001a0: ec76 38be 5bb1 6dbe 0801 213e 7fbb 8c3e
000001b0: c642 043f eaf9 b7bd 99e1 87be 3201 dabd
000001c0: 6ba3 96be 3597 113f ebdd d6bd f701 9fbe
000001d0: 875c 70be 1396 94be 7820 c3bd 6a2a e63e
000001e0: 68c4 32bc b116 c83e 19d0 15be 315f be3e
000001f0: 38d8 51be afcc 053f db54 793e 9573 80be
00000200: a5c0 a83e 44a3 a9be dbf9 4abe d37c ddbc
00000210: f763 fd3d 8e49 1bbe bfc9 913e 12cf 01bf
00000220: 3a59 d53e 9d03 abbe 6061 a13e e51c dd3e
00000230: c511 933e e9fd c8be 7bae 1fbe af2d 913e
00000240: f9d3 8e3e b235 b5be 4206 15be 6526 bdbd
00000250: 3bc1 af3e cea7 e23e e43d c53e a65c e6bd
00000260: da1d 603e 9abe 85be e014 623f e8e2 833e
00000270: 13a4 cb3d 4066 a33e 2178 293e dbfb a03e
00000280: 9b7e 42bd 6561 883e 5d26 053f 6825 2e3e
00000290: eb69 a8be e9f3 a33e da25 ab3e 2180 e4be
000002a0: 6190 33be 47fd acbe eec1 00bf 7c28 93be
000002b0: ca12 d53e 4fcb 3d3e 64cf 0cbe ce62 bebd
000002c0: 063d da3d 263a 793e c8a7 1b3f 93e8 efbe
000002d0: 1d41 0f3e 3a1a 243f 89a7 083f b720 3c3f
000002e0: 761e 2e3f e1bb 023f e564 82bd 125f ae3e
000002f0: fbaa 02be 603e dcbd 34b2 bfbd e3c8 5cbe
00000300: 375f 46be b5ff 88bd 75ff 493e 11b2 0bbf
00000310: dca5 38bd a3d7 cd3d 8b79 54be e709 1abf
00000320: 2d54 77be 7b4e a1be 5197 20be c39a 05bd
00000330: fc8e edbd a26a 0b3b b604 89be 87a7 d0bd
00000340: 9952 2d3f c8fb b83e 4715 db3e 0232 5dbd
00000350: 0345 a23e 9947 0b3e e450 f1bd e27f ee3d
00000360: bcf0 0f3f 2359 34be adfa 0bbf 4c6f e7bd
00000370: 73eb 0e3e 9c60 eabe 4429 6ebe 60a5 0ebf
00000380: 738a 03bf 4615 16bf 5f01 1f3e cb71 f33e
00000390: 1fe2 753e 8daa c93e 00d2 b5bd c0a1 de3e
000003a0: 2d67 b13d 7962 eabe 1a74 013f 59ce 323e
000003b0: cf0a 0b3f 2118 273e f560 a63c 5d1e be3e
000003c0: 7497 b43e e399 60be c5fe 213f 9ca1 d4be
000003d0: 7c09 0d3f 9c56 c0be b3dd c4be b143 df3e
000003e0: c02f ef3e 5fd1 d3be c124 a9bd 392e 4c3e
000003f0: 838c df3e 87fd b4be 3295 88be 939f 08be
0.41489717 -0.13239065 -0.35872638 0.4162368 0.3313183 -0.63513607 -0.1615016 -0.46435535
-0.27304 -0.63752353 0.515777 0.51194626 0.23756513 0.57380575 -0.0035529959 0.4996104
0.66243327 -0.65447986 0.22820675 0.6199566 0.35199323 0.83721685 0.64558464 0.74469835
0.3965344 0.5583173 -0.10859088 -0.3541977 -0.07253365 -0.40361956 -0.3755465 0.7866135
0.3504791 -0.24628341 -0.30904487 0.5474427 -0.10177925 -0.318315 -0.095327236 -0.22554837
-0.26650596 0.15831847 0.5859081 -0.21479441 0.5600696 -0.117086574 0.9393584 0.3401342
0.25286925 0.052835908 0.58823675 0.14903085 -0.002885164 -0.002065539 0.002429392 0.5611927
0.16786996 0.29494742 0.2828366 0.8782634 -0.008754833 0.23379207 -0.41509208 0.29834726
0.46281943 -0.38076797 -0.258992 -0.49077764 0.41087443 -0.1720224 0.3448601 0.7553721
-0.44572833 0.4691672 -0.060407825 0.40880036 0.30980948 0.3523787 0.0034968846 0.25821063
-0.35525882 0.59794855 -0.104241684 0.66410536 0.68362653 -0.34564134 -0.009130471 0.06968133
0.68312883 -0.080915876 -0.30002952 -0.25705206 0.021289056 0.16497251 0.5454746 -0.34928387
-0.38073078 0.49069545 -0.20029923 0.5664964 -0.11303382 0.08972228 0.024074364 -0.558445
-0.18014115 -0.23212187 0.1572305 0.27486798 0.5166439 -0.08983214 -0.26539305 -0.10644759
-0.29421553 0.5687135 -0.10491546 -0.31056187 -0.23472796 -0.29020748 -0.09527677 0.44954234
-0.010911085 0.39079812 -0.14630164 0.37182 -0.20492637 0.5226545 0.24348776 -0.25088182
0.32959476 -0.33132374 -0.19821875 -0.02703706 0.123725824 -0.15164778 0.28474233 -0.5070659
0.41669637 -0.33401194 0.31519604 0.43186107 0.28724495 -0.39256218 -0.15593903 0.28355166
0.27896097 -0.3539253 -0.14553168 -0.09235839 0.3432711 0.4426865 0.3852378 -0.1124814
0.21886387 -0.2612198 0.883131 0.25759053 0.09943404 0.31913948 0.16549732 0.3144215
-0.04748402 0.26636806 0.5201166 0.17006457 -0.3289331 0.32022026 0.33427316 -0.44629005
-0.17535545 -0.33786985 -0.50295913 -0.28741825 0.41615897 0.18534587 -0.13750988 -0.09296189
0.106561705 0.24338588 0.6080289 -0.46857128 0.13989682 0.6410252 0.5338064 0.7348742
0.6801523 0.5106793 -0.063669 0.34056908 -0.12760536 -0.107540846 -0.093601614 -0.21561007
-0.19372259 -0.06689397 0.19726355 -0.5456858 -0.04508005 0.10050895 -0.2074949 -0.6017136
-0.24153204 -0.31505188 -0.15682723 -0.032618295 -0.11599538 0.0021273275 -0.26761407 -0.10188203
0.6770416 0.36129594 0.4278967 -0.05400277 0.31693277 0.13601531 -0.11783007 0.116454855
0.56226707 -0.17612128 -0.54679376 -0.11300525 0.13957004 -0.45776832 -0.23257929 -0.5572109
-0.5138313 -0.5862621 0.15527867 0.47547755 0.2401204 0.39387932 -0.08877945 0.4348278
0.08662257 -0.45778254 0.5056778 0.17461528 0.5431337 0.16317798 0.020309905 0.3713254
0.352718 -0.21933703 0.6327937 -0.41529548 0.55092597 -0.37566078 -0.38450393 0.43606332
0.46716118 -0.41370675 -0.082589634 0.19939508 0.4366189 -0.35349676 -0.26676327 -0.13342123

l1.bias f4 [8]
00000000: 7389 273f 4d5a 883f dfef 2c3f 63ea 693f
00000010: 7559 ea3e a243 003f 7d1b d43e 4bf3 cf3e
0.65444106 1.0652558 0.67553514 0.9137327 0.45771375 0.501032 0.41427222 0.40615305

l2.weight f4 [8, 8]
00000000: 3367 6b3e 5d9b 8b3f cef5 c03e 326f a03f
00000010: 694d d9be f02d 053f 7264 9ebc 527b 57bf
00000020: 5a9d 0ebe 5690 a73f 748d 7abf 3ce8 3c3f
00000030: b59a 34bf dfd5 a23f 9b09 aa3f d86b 723f
00000040: 9a09 923f 7fd5 0f3f 7f3c e6be b6d0 843f
00000050: 45ec 09bd 02a2 b73f 9658 8f3e 633e 5cbf
00000060: 6665 703e 9453 a0be b0af 6fbe 9492 0d3e
00000070: 4c67 77be 3a3f 203e f128 55be 9269 63be
00000080: 9c78 913e 6a00 713f d30e 873f b9bc 6e3f
00000090: 15b0 c93e 4979 44bf 38a9 77bf 16df 53bf
000000a0: 18d5 b3be e1c9 a8be 9630 8abe c02d 463e
000000b0: 7e61 c13c 9219 8a3e f89d 163d 55da 4c3d
000000c0: 785f 8f3f 39b7 e0be 45ab 0c3f 9dfe c73e
000000d0: e4dc d43e 4ab8 6a3e 7578 4c3e 4582 953f
000000e0: 6389 a73f 8a33 22bf da12 883e d31d c53f
000000f0: 4fe7 a83f 95e5 4f3f 7dd7 4ebf ff67 f33e
0.22988586 1.0906788 0.37687534 1.2533934 -0.42441872 0.5202322 -0.019335005 -0.84172547
-0.13927212 1.3090923 -0.9787209 0.7379186 -0.70548564 1.2721518 1.3284181 0.94695807
1.140918 0.56185144 -0.4496803 1.0376194 -0.03367259 1.4346316 0.27997273 -0.86032695
0.2347618 -0.31313765 -0.23406863 0.13825446 -0.24160498 0.15649119 -0.20816399 -0.2220824
0.2841233 0.94141257 1.0551399 0.9325672 0.39392152 -0.76747566 -0.9674258 -0.8276228
-0.35123515 -0.3296652 -0.26990193 0.1935339 0.023606058 0.26972634 0.036771744 0.050012905
1.120101 -0.43889788 0.54948837 0.39061442 0.41574776 0.22921863 0.19967826 1.168038
1.3088802 -0.6335989 0.26576883 1.5399727 1.319559 0.8120969 -0.8079756 0.4754028

l2.bias f4 [8]
00000000: bda8 153f af8f b43e e382 6d3e 00f4 623c
00000010: c769 203f ef96 5ebe 1e64 88bd 095b 913e
0.584606 0.35265872 0.2319446 0.013852119 0.62661403 -0.21737264 -0.06659721 0.28389767

l3.weight f4 [7, 8]
00000000: 33ff 65bf ac46 16bf 790a c63d 3073 88bd
00000010: caf2 d6bf b7ed 96bb 9bd3 153f 6b29 ce3e
00000020: a485 e83e 7071 183f 5f9b d73e 3478 53be
00000030: 5d4d b2bf 767e 7dbe 4088 d3bf 9f4c 73bf
00000040: c373 4f3f 2e9d 63be 0c93 2cbe f973 a73e
00000050: e026 763f 83e1 623e 5cce aebf f5ef 8fbf
00000060: 0e03 953e efe9 573e 80bf 1b3e 1e69 7abe
00000070: b36f 26bf 8d1e 103d 009f e7be 71dd 4d3e
00000080: 1f5c b4bf e0ab 9ebf e56e a2bf e88d b23d
00000090: b88b b7bd 1492 17be 88c3 c13e f3d0 483f
000000a0: b4ec 6cbf 7fc7 3f3f 8fc3 d3be c057 a9bd
000000b0: f1ef 84bf 2deb 96bc 8053 c13e 7ce4 5dbf
000000c0: d1ac e8bc e23c b1bf 1d0c db3d d8bc 23bd
000000d0: 8037 2b3f 390e 4ebe 09cb 11bf e41a bc3e
-0.8984253 -0.58701587 0.09669966 -0.06662595 -1.6792843 -0.0046059745 0.5852601 0.40265974
0.4541446 0.5954809 0.42110726 -0.20651323 -1.3929859 -0.24755272 -1.6525955 -0.9503879
0.81036013 -0.22227928 -0.16852969 0.32705668 0.9615307 0.22156338 -1.3656726 -1.1245104
0.29103893 0.21085332 0.1520977 -0.24454162 -0.6501419 0.035185385 -0.45238495 0.20104004
-1.4090613 -1.2396202 -1.2690092 0.08718473 -0.08962196 -0.14801818 0.3784449 0.7844383
-0.9254868 0.7491378 -0.41360137 -0.0826869 -1.0385724 -0.018422687 0.37759018 -0.86676764
-0.028402718 -1.3846705 0.1069567 -0.039975017 0.6688156 -0.20122613 -0.5695043 0.36739266

l3.bias f4 [7]
00000000: 1e1c 25bf dc93 99be 7b77 c83e 2426 81bd
00000010: 3028 113f c0c2 813e a892 45be
-0.6449603 -0.2999562 0.39153656 -0.06306103 0.56701946 0.25343895 -0.19294226
